…
[38;5;15m  [39m[38;5;204mTEST[39m[38;5;15m:[39m[38;5;15m [39m[38;5;141m("openvocab_pascal20_sem_seg_val",[39m[38;5;141m [39m[38;5;141m"openvocab_ade20k_full_sem_seg_val",[39m[38;5;141m [39m[38;5;141m'openvocab_pascal_ctx459_sem_seg_val',[39m[38;5;141m [39m[38;5;141m'openvocab_pascal_ctx59_sem_seg_val',[39m[38;5;141m [39m[38;5;141m'openvocab_ade20k_panoptic_val')[39m[38;5;15m [39m
[38;5;15m  [39m[38;5;245m# TEST: ( 'openvocab_ade20k_panoptic_val',)[39m

[38;5;204mOUTPUT_DIR[39m[38;5;15m:[39m[38;5;15m [39m[38;5;141m./out/semantic/evaluation[39m

[10/29 16:59:04] detectron2.engine.defaults INFO: Model:
MAFT_Plus(
  (backbone): DINOv3TXT(
    (model): DINOTxt(
      (visual_model): VisionTower(
        (backbone): DinoVisionTransformer(
          (patch_embed): PatchEmbed(
            (proj): Conv2d(3, 1024, kernel_size=(16, 16), stride=(16, 16))
            (norm): Identity()
          )
          (rope_embed): RopePositionEmbedding()
          (blocks): ModuleList(
            (0-23): 24 x SelfAttentionBlock(
              (norm1): LayerNorm((1024,), eps=1e-05, elementwise_affine=True)
              (attn): SelfAttention(
                (qkv): LinearKMaskedBias(in_features=1024, out_features=3072, bias=True)
                (attn_drop): Dropout(p=0.0, inplace=False)
                (proj): Linear(in_features=1024, out_features=1024, bias=True)
                (proj_drop): Dropout(p=0.0, inplace=False)
              )
              (ls1): LayerScale()
              (norm2): LayerNorm((1024,), eps=1e-05, elementwise_affine=True)
              (mlp): Mlp(
                (fc1): Linear(in_features=1024, out_features=4096, bias=True)
                (act): GELU(approximate='none')
                (fc2): Linear(in_features=4096, out_features=1024, bias=True)
                (drop): Dropout(p=0.0, inplace=False)
              )
              (ls2): LayerScale()
            )
          )
          (norm): LayerNorm((1024,), eps=1e-05, elementwise_affine=True)
          (head): Identity()
        )
        (head): VisionHead(
          (ln_final): LayerNorm((1024,), eps=1e-05, elementwise_affine=True)
          (blocks): ModuleList(
            (0-1): 2 x SelfAttentionBlock(
              (norm1): LayerNorm((1024,), eps=1e-05, elementwise_affine=True)
              (attn): SelfAttention(
                (qkv): Linear(in_features=1024, out_features=3072, bias=False)
                (attn_drop): Dropout(p=0.0, inplace=False)
                (proj): Linear(in_features=1024, out_features=1024, bias=True)
                (proj_drop): Dropout(p=0.0, inplace=False)
              )
              (ls1): LayerScale()
              (norm2): LayerNorm((1024,), eps=1e-05, elementwise_affine=True)
              (mlp): SwiGLUFFN(
                (w1): Linear(in_features=1024, out_features=2752, bias=True)
                (w2): Linear(in_features=1024, out_features=2752, bias=True)
                (w3): Linear(in_features=2752, out_features=1024, bias=True)
              )
              (ls2): LayerScale()
            )
          )
          (linear_projection): Identity()
        )
      )
      (text_model): TextTower(
        (backbone): TextTransformer(
          (token_embedding): Embedding(49408, 1280)
          (dropout): Dropout(p=0.0, inplace=False)
          (blocks): ModuleList(
            (0-23): 24 x CausalSelfAttentionBlock(
              (ls1): Identity()
              (attention_norm): LayerNorm((1280,), eps=1e-05, elementwise_affine=True)
              (attention): CausalSelfAttention(
                (qkv): Linear(in_features=1280, out_features=3840, bias=False)
                (proj): Linear(in_features=1280, out_features=1280, bias=True)
                (proj_drop): Dropout(p=0.0, inplace=False)
              )
              (ffn_norm): LayerNorm((1280,), eps=1e-05, elementwise_affine=True)
              (feed_forward): Mlp(
                (fc1): Linear(in_features=1280, out_features=5120, bias=True)
                (act): GELU(approximate='none')
                (fc2): Linear(in_features=5120, out_features=1280, bias=True)
                (drop): Dropout(p=0.0, inplace=False)
              )
              (ls2): Identity()
            )
          )
          (ln_final): LayerNorm((1280,), eps=1e-05, elementwise_affine=True)
        )
        (head): TextHead(
          (ln_final): Identity()
          (blocks): ModuleList(
            (0): Identity()
          )
          (linear_projection): Linear(in_features=1280, out_features=2048, bias=False)
        )
      )
    )
  )
  (void_embedding): Embedding(1, 2048)
)
[10/29 16:59:04] detectron2.checkpoint.detection_checkpoint INFO: [DetectionCheckpointer] Loading from  ...
[10/29 16:59:04] fvcore.common.checkpoint INFO: No checkpoint found. Initializing model from scratch
[10/29 16:59:04] detectron2.data.dataset_mapper INFO: [DatasetMapper] Augmentations used in inference: [ResizeShortestEdge(short_edge_length=(800, 800), max_size=1333, sample_style='choice')]
…
