…
    GEOMETRIC_ENSEMBLE_ALPHA: -1.
    GEOMETRIC_ENSEMBLE_BETA: -1.

DATASETS:
  TEST: ("openvocab_pascal20_sem_seg_val", "openvocab_ade20k_full_sem_seg_val", 'openvocab_pascal_ctx459_sem_seg_val', 'openvocab_pascal_ctx59_sem_seg_val', 'openvocab_ade20k_panoptic_val') 
  # TEST: ("openvocab_ade20k_full_sem_seg_val",) #'openvocab_ade20k_panoptic_val',)

OUTPUT_DIR: ./out/semantic/evaluation

[10/20 16:50:39] detectron2.engine.defaults INFO: Model:
MAFT_Plus(
  (backbone): CLIP(
    (clip_model): CLIP(
      (visual): TimmModel(
        (trunk): ConvNeXt(
          (stem): Sequential(
            (0): Conv2d(3, 192, kernel_size=(4, 4), stride=(4, 4))
            (1): LayerNorm2d((192,), eps=1e-06, elementwise_affine=True)
          )
          (stages): Sequential(
            (0): ConvNeXtStage(
              (downsample): Identity()
              (blocks): Sequential(
                (0): ConvNeXtBlock(
                  (conv_dw): Conv2d(192, 192, kernel_size=(7, 7), stride=(1, 1), padding=(3, 3), groups=192)
                  (norm): LayerNorm((192,), eps=1e-06, elementwise_affine=True)
                  (mlp): Mlp(
                    (fc1): Linear(in_features=192, out_features=768, bias=True)
                    (act): GELU()
                    (drop1): Dropout(p=0.0, inplace=False)
                    (norm): Identity()
                    (fc2): Linear(in_features=768, out_features=192, bias=True)
                    (drop2): Dropout(p=0.0, inplace=False)
                  )
                  (shortcut): Identity()
                  (drop_path): Identity()
                )
                (1): ConvNeXtBlock(
                  (conv_dw): Conv2d(192, 192, kernel_size=(7, 7), stride=(1, 1), padding=(3, 3), groups=192)
                  (norm): LayerNorm((192,), eps=1e-06, elementwise_affine=True)
                  (mlp): Mlp(
                    (fc1): Linear(in_features=192, out_features=768, bias=True)
                    (act): GELU()
                    (drop1): Dropout(p=0.0, inplace=False)
                    (norm): Identity()
                    (fc2): Linear(in_features=768, out_features=192, bias=True)
                    (drop2): Dropout(p=0.0, inplace=False)
                  )
                  (shortcut): Identity()
                  (drop_path): DropPath(drop_prob=0.003)
                )
                (2): ConvNeXtBlock(
                  (conv_dw): Conv2d(192, 192, kernel_size=(7, 7), stride=(1, 1), padding=(3, 3), groups=192)
                  (norm): LayerNorm((192,), eps=1e-06, elementwise_affine=True)
                  (mlp): Mlp(
                    (fc1): Linear(in_features=192, out_features=768, bias=True)
                    (act): GELU()
                    (drop1): Dropout(p=0.0, inplace=False)
                    (norm): Identity()
                    (fc2): Linear(in_features=768, out_features=192, bias=True)
                    (drop2): Dropout(p=0.0, inplace=False)
                  )
                  (shortcut): Identity()
                  (drop_path): DropPath(drop_prob=0.006)
                )
              )
            )
            (1): ConvNeXtStage(
              (downsample): Sequential(
                (0): LayerNorm2d((192,), eps=1e-06, elementwise_affine=True)
                (1): Conv2d(192, 384, kernel_size=(2, 2), stride=(2, 2))
              )
              (blocks): Sequential(
                (0): ConvNeXtBlock(
                  (conv_dw): Conv2d(384, 384, kernel_size=(7, 7), stride=(1, 1), padding=(3, 3), groups=384)
                  (norm): LayerNorm((384,), eps=1e-06, elementwise_affine=True)
                  (mlp): Mlp(
                    (fc1): Linear(in_features=384, out_features=1536, bias=True)
                    (act): GELU()
                    (drop1): Dropout(p=0.0, inplace=False)
                    (norm): Identity()
                    (fc2): Linear(in_features=1536, out_features=384, bias=True)
                    (drop2): Dropout(p=0.0, inplace=False)
                  )
                  (shortcut): Identity()
                  (drop_path): DropPath(drop_prob=0.009)
                )
                (1): ConvNeXtBlock(
                  (conv_dw): Conv2d(384, 384, kernel_size=(7, 7), stride=(1, 1), padding=(3, 3), groups=384)
                  (norm): LayerNorm((384,), eps=1e-06, elementwise_affine=True)
                  (mlp): Mlp(
                    (fc1): Linear(in_features=384, out_features=1536, bias=True)
                    (act): GELU()
                    (drop1): Dropout(p=0.0, inplace=False)
                    (norm): Identity()
                    (fc2): Linear(in_features=1536, out_features=384, bias=True)
                    (drop2): Dropout(p=0.0, inplace=False)
                  )
                  (shortcut): Identity()
                  (drop_path): DropPath(drop_prob=0.011)
                )
                (2): ConvNeXtBlock(
                  (conv_dw): Conv2d(384, 384, kernel_size=(7, 7), stride=(1, 1), padding=(3, 3), groups=384)
                  (norm): LayerNorm((384,), eps=1e-06, elementwise_affine=True)
                  (mlp): Mlp(
                    (fc1): Linear(in_features=384, out_features=1536, bias=True)
                    (act): GELU()
                    (drop1): Dropout(p=0.0, inplace=False)
                    (norm): Identity()
                    (fc2): Linear(in_features=1536, out_features=384, bias=True)
                    (drop2): Dropout(p=0.0, inplace=False)
                  )
                  (shortcut): Identity()
                  (drop_path): DropPath(drop_prob=0.014)
                )
              )
            )
            (2): ConvNeXtStage(
              (downsample): Sequential(
                (0): LayerNorm2d((384,), eps=1e-06, elementwise_affine=True)
                (1): Conv2d(384, 768, kernel_size=(2, 2), stride=(2, 2))
              )
              (blocks): Sequential(
                (0): ConvNeXtBlock(
                  (conv_dw): Conv2d(768, 768, kernel_size=(7, 7), stride=(1, 1), padding=(3, 3), groups=768)
                  (norm): LayerNorm((768,), eps=1e-06, elementwise_affine=True)
                  (mlp): Mlp(
                    (fc1): Linear(in_features=768, out_features=3072, bias=True)
                    (act): GELU()
                    (drop1): Dropout(p=0.0, inplace=False)
                    (norm): Identity()
                    (fc2): Linear(in_features=3072, out_features=768, bias=True)
                    (drop2): Dropout(p=0.0, inplace=False)
                  )
                  (shortcut): Identity()
                  (drop_path): DropPath(drop_prob=0.017)
                )
                (1): ConvNeXtBlock(
                  (conv_dw): Conv2d(768, 768, kernel_size=(7, 7), stride=(1, 1), padding=(3, 3), groups=768)
                  (norm): LayerNorm((768,), eps=1e-06, elementwise_affine=True)
                  (mlp): Mlp(
                    (fc1): Linear(in_features=768, out_features=3072, bias=True)
                    (act): GELU()
                    (drop1): Dropout(p=0.0, inplace=False)
                    (norm): Identity()
                    (fc2): Linear(in_features=3072, out_features=768, bias=True)
                    (drop2): Dropout(p=0.0, inplace=False)
                  )
                  (shortcut): Identity()
                  (drop_path): DropPath(drop_prob=0.020)
                )
                (2): ConvNeXtBlock(
                  (conv_dw): Conv2d(768, 768, kernel_size=(7, 7), stride=(1, 1), padding=(3, 3), groups=768)
                  (norm): LayerNorm((768,), eps=1e-06, elementwise_affine=True)
                  (mlp): Mlp(
                    (fc1): Linear(in_features=768, out_features=3072, bias=True)
                    (act): GELU()
                    (drop1): Dropout(p=0.0, inplace=False)
                    (norm): Identity()
                    (fc2): Linear(in_features=3072, out_features=768, bias=True)
                    (drop2): Dropout(p=0.0, inplace=False)
                  )
                  (shortcut): Identity()
                  (drop_path): DropPath(drop_prob=0.023)
                )
                (3): ConvNeXtBlock(
                  (conv_dw): Conv2d(768, 768, kernel_size=(7, 7), stride=(1, 1), padding=(3, 3), groups=768)
                  (norm): LayerNorm((768,), eps=1e-06, elementwise_affine=True)
                  (mlp): Mlp(
                    (fc1): Linear(in_features=768, out_features=3072, bias=True)
                    (act): GELU()
                    (drop1): Dropout(p=0.0, inplace=False)
                    (norm): Identity()
                    (fc2): Linear(in_features=3072, out_features=768, bias=True)
                    (drop2): Dropout(p=0.0, inplace=False)
                  )
                  (shortcut): Identity()
                  (drop_path): DropPath(drop_prob=0.026)
                )
                (4): ConvNeXtBlock(
                  (conv_dw): Conv2d(768, 768, kernel_size=(7, 7), stride=(1, 1), padding=(3, 3), groups=768)
                  (norm): LayerNorm((768,), eps=1e-06, elementwise_affine=True)
                  (mlp): Mlp(
                    (fc1): Linear(in_features=768, out_features=3072, bias=True)
                    (act): GELU()
                    (drop1): Dropout(p=0.0, inplace=False)
                    (norm): Identity()
                    (fc2): Linear(in_features=3072, out_features=768, bias=True)
                    (drop2): Dropout(p=0.0, inplace=False)
                  )
                  (shortcut): Identity()
                  (drop_path): DropPath(drop_prob=0.029)
                )
                (5): ConvNeXtBlock(
                  (conv_dw): Conv2d(768, 768, kernel_size=(7, 7), stride=(1, 1), padding=(3, 3), groups=768)
                  (norm): LayerNorm((768,), eps=1e-06, elementwise_affine=True)
                  (mlp): Mlp(
                    (fc1): Linear(in_features=768, out_features=3072, bias=True)
                    (act): GELU()
                    (drop1): Dropout(p=0.0, inplace=False)
                    (norm): Identity()
                    (fc2): Linear(in_features=3072, out_features=768, bias=True)
                    (drop2): Dropout(p=0.0, inplace=False)
                  )
                  (shortcut): Identity()
                  (drop_path): DropPath(drop_prob=0.031)
                )
                (6): ConvNeXtBlock(
                  (conv_dw): Conv2d(768, 768, kernel_size=(7, 7), stride=(1, 1), padding=(3, 3), groups=768)
                  (norm): LayerNorm((768,), eps=1e-06, elementwise_affine=True)
                  (mlp): Mlp(
                    (fc1): Linear(in_features=768, out_features=3072, bias=True)
                    (act): GELU()
                    (drop1): Dropout(p=0.0, inplace=False)
                    (norm): Identity()
                    (fc2): Linear(in_features=3072, out_features=768, bias=True)
                    (drop2): Dropout(p=0.0, inplace=False)
                  )
                  (shortcut): Identity()
                  (drop_path): DropPath(drop_prob=0.034)
                )
                (7): ConvNeXtBlock(
                  (conv_dw): Conv2d(768, 768, kernel_size=(7, 7), stride=(1, 1), padding=(3, 3), groups=768)
                  (norm): LayerNorm((768,), eps=1e-06, elementwise_affine=True)
                  (mlp): Mlp(
                    (fc1): Linear(in_features=768, out_features=3072, bias=True)
                    (act): GELU()
                    (drop1): Dropout(p=0.0, inplace=False)
                    (norm): Identity()
                    (fc2): Linear(in_features=3072, out_features=768, bias=True)
                    (drop2): Dropout(p=0.0, inplace=False)
                  )
                  (shortcut): Identity()
                  (drop_path): DropPath(drop_prob=0.037)
                )
                (8): ConvNeXtBlock(
                  (conv_dw): Conv2d(768, 768, kernel_size=(7, 7), stride=(1, 1), padding=(3, 3), groups=768)
                  (norm): LayerNorm((768,), eps=1e-06, elementwise_affine=True)
                  (mlp): Mlp(
                    (fc1): Linear(in_features=768, out_features=3072, bias=True)
                    (act): GELU()
                    (drop1): Dropout(p=0.0, inplace=False)
                    (norm): Identity()
                    (fc2): Linear(in_features=3072, out_features=768, bias=True)
                    (drop2): Dropout(p=0.0, inplace=False)
                  )
                  (shortcut): Identity()
                  (drop_path): DropPath(drop_prob=0.040)
                )
                (9): ConvNeXtBlock(
                  (conv_dw): Conv2d(768, 768, kernel_size=(7, 7), stride=(1, 1), padding=(3, 3), groups=768)
                  (norm): LayerNorm((768,), eps=1e-06, elementwise_affine=True)
                  (mlp): Mlp(
                    (fc1): Linear(in_features=768, out_features=3072, bias=True)
                    (act): GELU()
                    (drop1): Dropout(p=0.0, inplace=False)
                    (norm): Identity()
                    (fc2): Linear(in_features=3072, out_features=768, bias=True)
                    (drop2): Dropout(p=0.0, inplace=False)
                  )
                  (shortcut): Identity()
                  (drop_path): DropPath(drop_prob=0.043)
                )
                (10): ConvNeXtBlock(
                  (conv_dw): Conv2d(768, 768, kernel_size=(7, 7), stride=(1, 1), padding=(3, 3), groups=768)
                  (norm): LayerNorm((768,), eps=1e-06, elementwise_affine=True)
                  (mlp): Mlp(
                    (fc1): Linear(in_features=768, out_features=3072, bias=True)
                    (act): GELU()
                    (drop1): Dropout(p=0.0, inplace=False)
                    (norm): Identity()
                    (fc2): Linear(in_features=3072, out_features=768, bias=True)
                    (drop2): Dropout(p=0.0, inplace=False)
                  )
                  (shortcut): Identity()
                  (drop_path): DropPath(drop_prob=0.046)
                )
                (11): ConvNeXtBlock(
                  (conv_dw): Conv2d(768, 768, kernel_size=(7, 7), stride=(1, 1), padding=(3, 3), groups=768)
                  (norm): LayerNorm((768,), eps=1e-06, elementwise_affine=True)
                  (mlp): Mlp(
                    (fc1): Linear(in_features=768, out_features=3072, bias=True)
                    (act): GELU()
                    (drop1): Dropout(p=0.0, inplace=False)
                    (norm): Identity()
                    (fc2): Linear(in_features=3072, out_features=768, bias=True)
                    (drop2): Dropout(p=0.0, inplace=False)
                  )
                  (shortcut): Identity()
                  (drop_path): DropPath(drop_prob=0.049)
                )
                (12): ConvNeXtBlock(
                  (conv_dw): Conv2d(768, 768, kernel_size=(7, 7), stride=(1, 1), padding=(3, 3), groups=768)
                  (norm): LayerNorm((768,), eps=1e-06, elementwise_affine=True)
                  (mlp): Mlp(
                    (fc1): Linear(in_features=768, out_features=3072, bias=True)
                    (act): GELU()
                    (drop1): Dropout(p=0.0, inplace=False)
                    (norm): Identity()
                    (fc2): Linear(in_features=3072, out_features=768, bias=True)
                    (drop2): Dropout(p=0.0, inplace=False)
                  )
                  (shortcut): Identity()
                  (drop_path): DropPath(drop_prob=0.051)
                )
                (13): ConvNeXtBlock(
                  (conv_dw): Conv2d(768, 768, kernel_size=(7, 7), stride=(1, 1), padding=(3, 3), groups=768)
                  (norm): LayerNorm((768,), eps=1e-06, elementwise_affine=True)
                  (mlp): Mlp(
                    (fc1): Linear(in_features=768, out_features=3072, bias=True)
                    (act): GELU()
                    (drop1): Dropout(p=0.0, inplace=False)
                    (norm): Identity()
                    (fc2): Linear(in_features=3072, out_features=768, bias=True)
                    (drop2): Dropout(p=0.0, inplace=False)
                  )
                  (shortcut): Identity()
                  (drop_path): DropPath(drop_prob=0.054)
                )
                (14): ConvNeXtBlock(
                  (conv_dw): Conv2d(768, 768, kernel_size=(7, 7), stride=(1, 1), padding=(3, 3), groups=768)
                  (norm): LayerNorm((768,), eps=1e-06, elementwise_affine=True)
                  (mlp): Mlp(
                    (fc1): Linear(in_features=768, out_features=3072, bias=True)
                    (act): GELU()
                    (drop1): Dropout(p=0.0, inplace=False)
                    (norm): Identity()
                    (fc2): Linear(in_features=3072, out_features=768, bias=True)
                    (drop2): Dropout(p=0.0, inplace=False)
                  )
                  (shortcut): Identity()
                  (drop_path): DropPath(drop_prob=0.057)
                )
                (15): ConvNeXtBlock(
                  (conv_dw): Conv2d(768, 768, kernel_size=(7, 7), stride=(1, 1), padding=(3, 3), groups=768)
                  (norm): LayerNorm((768,), eps=1e-06, elementwise_affine=True)
                  (mlp): Mlp(
                    (fc1): Linear(in_features=768, out_features=3072, bias=True)
                    (act): GELU()
                    (drop1): Dropout(p=0.0, inplace=False)
                    (norm): Identity()
                    (fc2): Linear(in_features=3072, out_features=768, bias=True)
                    (drop2): Dropout(p=0.0, inplace=False)
                  )
                  (shortcut): Identity()
                  (drop_path): DropPath(drop_prob=0.060)
                )
                (16): ConvNeXtBlock(
                  (conv_dw): Conv2d(768, 768, kernel_size=(7, 7), stride=(1, 1), padding=(3, 3), groups=768)
                  (norm): LayerNorm((768,), eps=1e-06, elementwise_affine=True)
                  (mlp): Mlp(
                    (fc1): Linear(in_features=768, out_features=3072, bias=True)
                    (act): GELU()
                    (drop1): Dropout(p=0.0, inplace=False)
                    (norm): Identity()
                    (fc2): Linear(in_features=3072, out_features=768, bias=True)
                    (drop2): Dropout(p=0.0, inplace=False)
                  )
                  (shortcut): Identity()
                  (drop_path): DropPath(drop_prob=0.063)
                )
                (17): ConvNeXtBlock(
                  (conv_dw): Conv2d(768, 768, kernel_size=(7, 7), stride=(1, 1), padding=(3, 3), groups=768)
                  (norm): LayerNorm((768,), eps=1e-06, elementwise_affine=True)
                  (mlp): Mlp(
                    (fc1): Linear(in_features=768, out_features=3072, bias=True)
                    (act): GELU()
                    (drop1): Dropout(p=0.0, inplace=False)
                    (norm): Identity()
                    (fc2): Linear(in_features=3072, out_features=768, bias=True)
                    (drop2): Dropout(p=0.0, inplace=False)
                  )
                  (shortcut): Identity()
                  (drop_path): DropPath(drop_prob=0.066)
                )
                (18): ConvNeXtBlock(
                  (conv_dw): Conv2d(768, 768, kernel_size=(7, 7), stride=(1, 1), padding=(3, 3), groups=768)
                  (norm): LayerNorm((768,), eps=1e-06, elementwise_affine=True)
                  (mlp): Mlp(
                    (fc1): Linear(in_features=768, out_features=3072, bias=True)
                    (act): GELU()
                    (drop1): Dropout(p=0.0, inplace=False)
                    (norm): Identity()
                    (fc2): Linear(in_features=3072, out_features=768, bias=True)
                    (drop2): Dropout(p=0.0, inplace=False)
                  )
                  (shortcut): Identity()
                  (drop_path): DropPath(drop_prob=0.069)
                )
                (19): ConvNeXtBlock(
                  (conv_dw): Conv2d(768, 768, kernel_size=(7, 7), stride=(1, 1), padding=(3, 3), groups=768)
                  (norm): LayerNorm((768,), eps=1e-06, elementwise_affine=True)
                  (mlp): Mlp(
                    (fc1): Linear(in_features=768, out_features=3072, bias=True)
                    (act): GELU()
                    (drop1): Dropout(p=0.0, inplace=False)
                    (norm): Identity()
                    (fc2): Linear(in_features=3072, out_features=768, bias=True)
                    (drop2): Dropout(p=0.0, inplace=False)
                  )
                  (shortcut): Identity()
                  (drop_path): DropPath(drop_prob=0.071)
                )
                (20): ConvNeXtBlock(
                  (conv_dw): Conv2d(768, 768, kernel_size=(7, 7), stride=(1, 1), padding=(3, 3), groups=768)
                  (norm): LayerNorm((768,), eps=1e-06, elementwise_affine=True)
                  (mlp): Mlp(
                    (fc1): Linear(in_features=768, out_features=3072, bias=True)
                    (act): GELU()
                    (drop1): Dropout(p=0.0, inplace=False)
                    (norm): Identity()
                    (fc2): Linear(in_features=3072, out_features=768, bias=True)
                    (drop2): Dropout(p=0.0, inplace=False)
                  )
                  (shortcut): Identity()
                  (drop_path): DropPath(drop_prob=0.074)
                )
                (21): ConvNeXtBlock(
                  (conv_dw): Conv2d(768, 768, kernel_size=(7, 7), stride=(1, 1), padding=(3, 3), groups=768)
                  (norm): LayerNorm((768,), eps=1e-06, elementwise_affine=True)
                  (mlp): Mlp(
                    (fc1): Linear(in_features=768, out_features=3072, bias=True)
                    (act): GELU()
                    (drop1): Dropout(p=0.0, inplace=False)
                    (norm): Identity()
                    (fc2): Linear(in_features=3072, out_features=768, bias=True)
                    (drop2): Dropout(p=0.0, inplace=False)
                  )
                  (shortcut): Identity()
                  (drop_path): DropPath(drop_prob=0.077)
                )
                (22): ConvNeXtBlock(
                  (conv_dw): Conv2d(768, 768, kernel_size=(7, 7), stride=(1, 1), padding=(3, 3), groups=768)
                  (norm): LayerNorm((768,), eps=1e-06, elementwise_affine=True)
                  (mlp): Mlp(
                    (fc1): Linear(in_features=768, out_features=3072, bias=True)
                    (act): GELU()
                    (drop1): Dropout(p=0.0, inplace=False)
                    (norm): Identity()
                    (fc2): Linear(in_features=3072, out_features=768, bias=True)
                    (drop2): Dropout(p=0.0, inplace=False)
                  )
                  (shortcut): Identity()
                  (drop_path): DropPath(drop_prob=0.080)
                )
                (23): ConvNeXtBlock(
                  (conv_dw): Conv2d(768, 768, kernel_size=(7, 7), stride=(1, 1), padding=(3, 3), groups=768)
                  (norm): LayerNorm((768,), eps=1e-06, elementwise_affine=True)
                  (mlp): Mlp(
                    (fc1): Linear(in_features=768, out_features=3072, bias=True)
                    (act): GELU()
                    (drop1): Dropout(p=0.0, inplace=False)
                    (norm): Identity()
                    (fc2): Linear(in_features=3072, out_features=768, bias=True)
                    (drop2): Dropout(p=0.0, inplace=False)
                  )
                  (shortcut): Identity()
                  (drop_path): DropPath(drop_prob=0.083)
                )
                (24): ConvNeXtBlock(
                  (conv_dw): Conv2d(768, 768, kernel_size=(7, 7), stride=(1, 1), padding=(3, 3), groups=768)
                  (norm): LayerNorm((768,), eps=1e-06, elementwise_affine=True)
                  (mlp): Mlp(
                    (fc1): Linear(in_features=768, out_features=3072, bias=True)
                    (act): GELU()
                    (drop1): Dropout(p=0.0, inplace=False)
                    (norm): Identity()
                    (fc2): Linear(in_features=3072, out_features=768, bias=True)
                    (drop2): Dropout(p=0.0, inplace=False)
                  )
                  (shortcut): Identity()
                  (drop_path): DropPath(drop_prob=0.086)
                )
                (25): ConvNeXtBlock(
                  (conv_dw): Conv2d(768, 768, kernel_size=(7, 7), stride=(1, 1), padding=(3, 3), groups=768)
                  (norm): LayerNorm((768,), eps=1e-06, elementwise_affine=True)
                  (mlp): Mlp(
                    (fc1): Linear(in_features=768, out_features=3072, bias=True)
                    (act): GELU()
                    (drop1): Dropout(p=0.0, inplace=False)
                    (norm): Identity()
                    (fc2): Linear(in_features=3072, out_features=768, bias=True)
                    (drop2): Dropout(p=0.0, inplace=False)
                  )
                  (shortcut): Identity()
                  (drop_path): DropPath(drop_prob=0.089)
                )
                (26): ConvNeXtBlock(
                  (conv_dw): Conv2d(768, 768, kernel_size=(7, 7), stride=(1, 1), padding=(3, 3), groups=768)
                  (norm): LayerNorm((768,), eps=1e-06, elementwise_affine=True)
                  (mlp): Mlp(
                    (fc1): Linear(in_features=768, out_features=3072, bias=True)
                    (act): GELU()
                    (drop1): Dropout(p=0.0, inplace=False)
                    (norm): Identity()
                    (fc2): Linear(in_features=3072, out_features=768, bias=True)
                    (drop2): Dropout(p=0.0, inplace=False)
                  )
                  (shortcut): Identity()
                  (drop_path): DropPath(drop_prob=0.091)
                )
              )
            )
            (3): ConvNeXtStage(
              (downsample): Sequential(
                (0): LayerNorm2d((768,), eps=1e-06, elementwise_affine=True)
                (1): Conv2d(768, 1536, kernel_size=(2, 2), stride=(2, 2))
              )
              (blocks): Sequential(
                (0): ConvNeXtBlock(
                  (conv_dw): Conv2d(1536, 1536, kernel_size=(7, 7), stride=(1, 1), padding=(3, 3), groups=1536)
                  (norm): LayerNorm((1536,), eps=1e-06, elementwise_affine=True)
                  (mlp): Mlp(
                    (fc1): Linear(in_features=1536, out_features=6144, bias=True)
                    (act): GELU()
                    (drop1): Dropout(p=0.0, inplace=False)
                    (norm): Identity()
                    (fc2): Linear(in_features=6144, out_features=1536, bias=True)
                    (drop2): Dropout(p=0.0, inplace=False)
                  )
                  (shortcut): Identity()
                  (drop_path): DropPath(drop_prob=0.094)
                )
                (1): ConvNeXtBlock(
                  (conv_dw): Conv2d(1536, 1536, kernel_size=(7, 7), stride=(1, 1), padding=(3, 3), groups=1536)
                  (norm): LayerNorm((1536,), eps=1e-06, elementwise_affine=True)
                  (mlp): Mlp(
                    (fc1): Linear(in_features=1536, out_features=6144, bias=True)
                    (act): GELU()
                    (drop1): Dropout(p=0.0, inplace=False)
                    (norm): Identity()
                    (fc2): Linear(in_features=6144, out_features=1536, bias=True)
                    (drop2): Dropout(p=0.0, inplace=False)
                  )
                  (shortcut): Identity()
                  (drop_path): DropPath(drop_prob=0.097)
                )
                (2): ConvNeXtBlock(
                  (conv_dw): Conv2d(1536, 1536, kernel_size=(7, 7), stride=(1, 1), padding=(3, 3), groups=1536)
                  (norm): LayerNorm((1536,), eps=1e-06, elementwise_affine=True)
                  (mlp): Mlp(
                    (fc1): Linear(in_features=1536, out_features=6144, bias=True)
                    (act): GELU()
                    (drop1): Dropout(p=0.0, inplace=False)
                    (norm): Identity()
                    (fc2): Linear(in_features=6144, out_features=1536, bias=True)
                    (drop2): Dropout(p=0.0, inplace=False)
                  )
                  (shortcut): Identity()
                  (drop_path): DropPath(drop_prob=0.100)
                )
              )
            )
          )
          (norm_pre): Identity()
          (head): NormMlpClassifierHead(
            (global_pool): SelectAdaptivePool2d(pool_type=avg, flatten=Identity())
            (norm): LayerNorm2d((1536,), eps=1e-06, elementwise_affine=True)
            (flatten): Flatten(start_dim=1, end_dim=-1)
            (pre_logits): Identity()
            (drop): Dropout(p=0.0, inplace=False)
            (fc): Identity()
          )
        )
        (head): Sequential(
          (mlp): Mlp(
            (fc1): Linear(in_features=1536, out_features=1536, bias=True)
            (act): GELU(approximate='none')
            (drop1): Dropout(p=0.0, inplace=False)
            (norm): Identity()
            (fc2): Linear(in_features=1536, out_features=768, bias=False)
            (drop2): Dropout(p=0, inplace=False)
          )
        )
      )
      (transformer): Transformer(
        (resblocks): ModuleList(
          (0-15): 16 x ResidualAttentionBlock(
            (ln_1): LayerNorm((768,), eps=1e-05, elementwise_affine=True)
            (attn): MultiheadAttention(
              (out_proj): NonDynamicallyQuantizableLinear(in_features=768, out_features=768, bias=True)
            )
            (ls_1): Identity()
            (ln_2): LayerNorm((768,), eps=1e-05, elementwise_affine=True)
            (mlp): Sequential(
              (c_fc): Linear(in_features=768, out_features=3072, bias=True)
              (gelu): GELU(approximate='none')
              (c_proj): Linear(in_features=3072, out_features=768, bias=True)
            )
            (ls_2): Identity()
          )
        )
      )
      (token_embedding): Embedding(49408, 768)
      (ln_final): LayerNorm((768,), eps=1e-05, elementwise_affine=True)
    )
  )
  (void_embedding): Embedding(1, 768)
)
[10/20 16:50:39] detectron2.checkpoint.detection_checkpoint INFO: [DetectionCheckpointer] Loading from out/semantic/MAFT_Plus/maftp_l.pth ...
[10/20 16:50:39] fvcore.common.checkpoint INFO: [Checkpointer] Loading from out/semantic/MAFT_Plus/maftp_l.pth ...
[10/20 16:50:39] detectron2.data.dataset_mapper INFO: [DatasetMapper] Augmentations used in inference: [ResizeShortestEdge(short_edge_length=(800, 800), max_size=1333, sample_style='choice')]
…
# python train_net.py --config-file configs/semantic/eval.yaml  --num-gpus 8 --eval-only

_BASE_: ./train_semantic_large.yaml
MODEL:
  BACKBONE:
    NAME: "PEEncoder"
  META_ARCHITECTURE: "MAFT_Plus"


DATASETS:
  # TEST: ("openvocab_pascal20_sem_seg_val", "openvocab_ade20k_full_sem_seg_val", 'openvocab_pascal_ctx459_sem_seg_val', 'openvocab_pascal_ctx59_sem_seg_val', 'openvocab_ade20k_panoptic_val') 
  TEST: ( 'openvocab_ade20k_panoptic_val',)

OUTPUT_DIR: ./out/semantic/evaluation

PE:
  ENABLED: True
  MODEL_NAME: "PE-Core-L14-336"
[10/28 11:22:18] detectron2.engine.defaults INFO: Model:
MAFT_Plus(
  (backbone): PEEncoder(
    (pe_model): CLIP(
      (token_embedding): Embedding(49408, 1024)
      (transformer): Transformer(
        (resblocks): ModuleList(
          (0-23): 24 x ResidualAttentionBlock(
            (attn): MultiheadAttention(
              (out_proj): NonDynamicallyQuantizableLinear(in_features=1024, out_features=1024, bias=True)
            )
            (ls_1): Identity()
            (ls_2): Identity()
            (ln_1): LayerNorm((1024,), eps=1e-05, elementwise_affine=True)
            (ln_2): LayerNorm((1024,), eps=1e-05, elementwise_affine=True)
            (drop_path1): Identity()
            (drop_path2): Identity()
            (mlp): Sequential(
              (c_fc): Linear(in_features=1024, out_features=4096, bias=True)
              (gelu): GELU(approximate='none')
              (c_proj): Linear(in_features=4096, out_features=1024, bias=True)
            )
          )
        )
      )
      (ln_final): LayerNorm((1024,), eps=1e-05, elementwise_affine=True)
      (visual): VisionTransformer(
        (conv1): Conv2d(3, 1024, kernel_size=(14, 14), stride=(14, 14), bias=False)
        (ln_pre): LayerNorm((1024,), eps=1e-05, elementwise_affine=True)
        (ln_post): LayerNorm((1024,), eps=1e-05, elementwise_affine=True)
        (transformer): Transformer(
          (resblocks): ModuleList(
            (0-23): 24 x ResidualAttentionBlock(
              (attn): SelfAttention(
                (out_proj): Linear(in_features=1024, out_features=1024, bias=True)
              )
              (ls_1): Identity()
              (ls_2): Identity()
              (ln_1): LayerNorm((1024,), eps=1e-05, elementwise_affine=True)
              (ln_2): LayerNorm((1024,), eps=1e-05, elementwise_affine=True)
              (drop_path1): Identity()
              (drop_path2): Identity()
              (mlp): Sequential(
                (c_fc): Linear(in_features=1024, out_features=4096, bias=True)
                (gelu): GELU(approximate='none')
                (c_proj): Linear(in_features=4096, out_features=1024, bias=True)
              )
            )
          )
        )
        (attn_pool): AttentionPooling(
          (attn): MultiheadAttention(
            (out_proj): NonDynamicallyQuantizableLinear(in_features=1024, out_features=1024, bias=True)
          )
          (layernorm): LayerNorm((1024,), eps=1e-05, elementwise_affine=True)
          (mlp): Sequential(
            (c_fc): Linear(in_features=1024, out_features=4096, bias=True)
            (gelu): GELU(approximate='none')
            (c_proj): Linear(in_features=4096, out_features=1024, bias=True)
          )
        )
      )
    )
  )
  (void_embedding): Embedding(1, 1024)
)
[10/28 11:22:18] detectron2.checkpoint.detection_checkpoint INFO: [DetectionCheckpointer] Loading from  ...
[10/28 11:22:18] fvcore.common.checkpoint INFO: No checkpoint found. Initializing model from scratch
[10/28 11:22:19] detectron2.data.dataset_mapper INFO: [DatasetMapper] Augmentations used in inference: [ResizeShortestEdge(short_edge_length=(800, 800), max_size=1333, sample_style='choice')]
…
