…
    MAX_SIZE: 4000
    MIN_SIZES:
    - 400
    - 500
    - 600
    - 700
    - 800
    - 900
    - 1000
    - 1100
    - 1200
  DETECTIONS_PER_IMAGE: 100
  EVAL_PERIOD: 5000
  EXPECTED_RESULTS: []
  KEYPOINT_OKS_SIGMAS: []
  PRECISE_BN:
    ENABLED: false
    NUM_ITER: 200
VERSION: 2
VIS_PERIOD: 0

[10/12 11:22:14] detectron2 INFO: Full config saved to ./out/semantic/MAFT_Plus_large/ori/config.yaml
[10/12 11:22:27] d2.engine.defaults INFO: Model:
MAFT_Plus(
  (backbone): CLIP(
    (clip_model): CLIP(
      (visual): TimmModel(
        (trunk): ConvNeXt(
          (stem): Sequential(
            (0): Conv2d(3, 192, kernel_size=(4, 4), stride=(4, 4))
            (1): LayerNorm2d((192,), eps=1e-06, elementwise_affine=True)
          )
          (stages): Sequential(
            (0): ConvNeXtStage(
              (downsample): Identity()
              (blocks): Sequential(
                (0): ConvNeXtBlock(
                  (conv_dw): Conv2d(192, 192, kernel_size=(7, 7), stride=(1, 1), padding=(3, 3), groups=192)
                  (norm): LayerNorm((192,), eps=1e-06, elementwise_affine=True)
                  (mlp): Mlp(
                    (fc1): Linear(in_features=192, out_features=768, bias=True)
                    (act): GELU()
                    (drop1): Dropout(p=0.0, inplace=False)
                    (norm): Identity()
                    (fc2): Linear(in_features=768, out_features=192, bias=True)
                    (drop2): Dropout(p=0.0, inplace=False)
                  )
                  (shortcut): Identity()
                  (drop_path): Identity()
                )
                (1): ConvNeXtBlock(
                  (conv_dw): Conv2d(192, 192, kernel_size=(7, 7), stride=(1, 1), padding=(3, 3), groups=192)
                  (norm): LayerNorm((192,), eps=1e-06, elementwise_affine=True)
                  (mlp): Mlp(
                    (fc1): Linear(in_features=192, out_features=768, bias=True)
                    (act): GELU()
                    (drop1): Dropout(p=0.0, inplace=False)
                    (norm): Identity()
                    (fc2): Linear(in_features=768, out_features=192, bias=True)
                    (drop2): Dropout(p=0.0, inplace=False)
                  )
                  (shortcut): Identity()
                  (drop_path): DropPath(drop_prob=0.003)
                )
                (2): ConvNeXtBlock(
                  (conv_dw): Conv2d(192, 192, kernel_size=(7, 7), stride=(1, 1), padding=(3, 3), groups=192)
                  (norm): LayerNorm((192,), eps=1e-06, elementwise_affine=True)
                  (mlp): Mlp(
                    (fc1): Linear(in_features=192, out_features=768, bias=True)
                    (act): GELU()
                    (drop1): Dropout(p=0.0, inplace=False)
                    (norm): Identity()
                    (fc2): Linear(in_features=768, out_features=192, bias=True)
                    (drop2): Dropout(p=0.0, inplace=False)
                  )
                  (shortcut): Identity()
                  (drop_path): DropPath(drop_prob=0.006)
                )
              )
            )
            (1): ConvNeXtStage(
              (downsample): Sequential(
                (0): LayerNorm2d((192,), eps=1e-06, elementwise_affine=True)
                (1): Conv2d(192, 384, kernel_size=(2, 2), stride=(2, 2))
              )
              (blocks): Sequential(
                (0): ConvNeXtBlock(
                  (conv_dw): Conv2d(384, 384, kernel_size=(7, 7), stride=(1, 1), padding=(3, 3), groups=384)
                  (norm): LayerNorm((384,), eps=1e-06, elementwise_affine=True)
                  (mlp): Mlp(
                    (fc1): Linear(in_features=384, out_features=1536, bias=True)
                    (act): GELU()
                    (drop1): Dropout(p=0.0, inplace=False)
                    (norm): Identity()
                    (fc2): Linear(in_features=1536, out_features=384, bias=True)
                    (drop2): Dropout(p=0.0, inplace=False)
                  )
                  (shortcut): Identity()
                  (drop_path): DropPath(drop_prob=0.009)
                )
                (1): ConvNeXtBlock(
                  (conv_dw): Conv2d(384, 384, kernel_size=(7, 7), stride=(1, 1), padding=(3, 3), groups=384)
                  (norm): LayerNorm((384,), eps=1e-06, elementwise_affine=True)
                  (mlp): Mlp(
                    (fc1): Linear(in_features=384, out_features=1536, bias=True)
                    (act): GELU()
                    (drop1): Dropout(p=0.0, inplace=False)
                    (norm): Identity()
                    (fc2): Linear(in_features=1536, out_features=384, bias=True)
                    (drop2): Dropout(p=0.0, inplace=False)
                  )
                  (shortcut): Identity()
                  (drop_path): DropPath(drop_prob=0.011)
                )
                (2): ConvNeXtBlock(
                  (conv_dw): Conv2d(384, 384, kernel_size=(7, 7), stride=(1, 1), padding=(3, 3), groups=384)
                  (norm): LayerNorm((384,), eps=1e-06, elementwise_affine=True)
                  (mlp): Mlp(
                    (fc1): Linear(in_features=384, out_features=1536, bias=True)
                    (act): GELU()
                    (drop1): Dropout(p=0.0, inplace=False)
                    (norm): Identity()
                    (fc2): Linear(in_features=1536, out_features=384, bias=True)
                    (drop2): Dropout(p=0.0, inplace=False)
                  )
                  (shortcut): Identity()
                  (drop_path): DropPath(drop_prob=0.014)
                )
              )
            )
            (2): ConvNeXtStage(
              (downsample): Sequential(
                (0): LayerNorm2d((384,), eps=1e-06, elementwise_affine=True)
                (1): Conv2d(384, 768, kernel_size=(2, 2), stride=(2, 2))
              )
              (blocks): Sequential(
                (0): ConvNeXtBlock(
                  (conv_dw): Conv2d(768, 768, kernel_size=(7, 7), stride=(1, 1), padding=(3, 3), groups=768)
                  (norm): LayerNorm((768,), eps=1e-06, elementwise_affine=True)
                  (mlp): Mlp(
                    (fc1): Linear(in_features=768, out_features=3072, bias=True)
                    (act): GELU()
                    (drop1): Dropout(p=0.0, inplace=False)
                    (norm): Identity()
                    (fc2): Linear(in_features=3072, out_features=768, bias=True)
                    (drop2): Dropout(p=0.0, inplace=False)
                  )
                  (shortcut): Identity()
                  (drop_path): DropPath(drop_prob=0.017)
                )
                (1): ConvNeXtBlock(
                  (conv_dw): Conv2d(768, 768, kernel_size=(7, 7), stride=(1, 1), padding=(3, 3), groups=768)
                  (norm): LayerNorm((768,), eps=1e-06, elementwise_affine=True)
                  (mlp): Mlp(
                    (fc1): Linear(in_features=768, out_features=3072, bias=True)
                    (act): GELU()
                    (drop1): Dropout(p=0.0, inplace=False)
                    (norm): Identity()
                    (fc2): Linear(in_features=3072, out_features=768, bias=True)
                    (drop2): Dropout(p=0.0, inplace=False)
                  )
                  (shortcut): Identity()
                  (drop_path): DropPath(drop_prob=0.020)
                )
                (2): ConvNeXtBlock(
                  (conv_dw): Conv2d(768, 768, kernel_size=(7, 7), stride=(1, 1), padding=(3, 3), groups=768)
                  (norm): LayerNorm((768,), eps=1e-06, elementwise_affine=True)
                  (mlp): Mlp(
                    (fc1): Linear(in_features=768, out_features=3072, bias=True)
                    (act): GELU()
                    (drop1): Dropout(p=0.0, inplace=False)
                    (norm): Identity()
                    (fc2): Linear(in_features=3072, out_features=768, bias=True)
                    (drop2): Dropout(p=0.0, inplace=False)
                  )
                  (shortcut): Identity()
                  (drop_path): DropPath(drop_prob=0.023)
                )
                (3): ConvNeXtBlock(
                  (conv_dw): Conv2d(768, 768, kernel_size=(7, 7), stride=(1, 1), padding=(3, 3), groups=768)
                  (norm): LayerNorm((768,), eps=1e-06, elementwise_affine=True)
                  (mlp): Mlp(
                    (fc1): Linear(in_features=768, out_features=3072, bias=True)
                    (act): GELU()
                    (drop1): Dropout(p=0.0, inplace=False)
                    (norm): Identity()
                    (fc2): Linear(in_features=3072, out_features=768, bias=True)
                    (drop2): Dropout(p=0.0, inplace=False)
                  )
                  (shortcut): Identity()
                  (drop_path): DropPath(drop_prob=0.026)
                )
                (4): ConvNeXtBlock(
                  (conv_dw): Conv2d(768, 768, kernel_size=(7, 7), stride=(1, 1), padding=(3, 3), groups=768)
                  (norm): LayerNorm((768,), eps=1e-06, elementwise_affine=True)
                  (mlp): Mlp(
                    (fc1): Linear(in_features=768, out_features=3072, bias=True)
                    (act): GELU()
                    (drop1): Dropout(p=0.0, inplace=False)
                    (norm): Identity()
                    (fc2): Linear(in_features=3072, out_features=768, bias=True)
                    (drop2): Dropout(p=0.0, inplace=False)
                  )
                  (shortcut): Identity()
                  (drop_path): DropPath(drop_prob=0.029)
                )
                (5): ConvNeXtBlock(
                  (conv_dw): Conv2d(768, 768, kernel_size=(7, 7), stride=(1, 1), padding=(3, 3), groups=768)
                  (norm): LayerNorm((768,), eps=1e-06, elementwise_affine=True)
                  (mlp): Mlp(
                    (fc1): Linear(in_features=768, out_features=3072, bias=True)
                    (act): GELU()
                    (drop1): Dropout(p=0.0, inplace=False)
                    (norm): Identity()
                    (fc2): Linear(in_features=3072, out_features=768, bias=True)
                    (drop2): Dropout(p=0.0, inplace=False)
                  )
                  (shortcut): Identity()
                  (drop_path): DropPath(drop_prob=0.031)
                )
                (6): ConvNeXtBlock(
                  (conv_dw): Conv2d(768, 768, kernel_size=(7, 7), stride=(1, 1), padding=(3, 3), groups=768)
                  (norm): LayerNorm((768,), eps=1e-06, elementwise_affine=True)
                  (mlp): Mlp(
                    (fc1): Linear(in_features=768, out_features=3072, bias=True)
                    (act): GELU()
                    (drop1): Dropout(p=0.0, inplace=False)
                    (norm): Identity()
                    (fc2): Linear(in_features=3072, out_features=768, bias=True)
                    (drop2): Dropout(p=0.0, inplace=False)
                  )
                  (shortcut): Identity()
                  (drop_path): DropPath(drop_prob=0.034)
                )
                (7): ConvNeXtBlock(
                  (conv_dw): Conv2d(768, 768, kernel_size=(7, 7), stride=(1, 1), padding=(3, 3), groups=768)
                  (norm): LayerNorm((768,), eps=1e-06, elementwise_affine=True)
                  (mlp): Mlp(
                    (fc1): Linear(in_features=768, out_features=3072, bias=True)
                    (act): GELU()
                    (drop1): Dropout(p=0.0, inplace=False)
                    (norm): Identity()
                    (fc2): Linear(in_features=3072, out_features=768, bias=True)
                    (drop2): Dropout(p=0.0, inplace=False)
                  )
                  (shortcut): Identity()
                  (drop_path): DropPath(drop_prob=0.037)
                )
                (8): ConvNeXtBlock(
                  (conv_dw): Conv2d(768, 768, kernel_size=(7, 7), stride=(1, 1), padding=(3, 3), groups=768)
                  (norm): LayerNorm((768,), eps=1e-06, elementwise_affine=True)
                  (mlp): Mlp(
                    (fc1): Linear(in_features=768, out_features=3072, bias=True)
                    (act): GELU()
                    (drop1): Dropout(p=0.0, inplace=False)
                    (norm): Identity()
                    (fc2): Linear(in_features=3072, out_features=768, bias=True)
                    (drop2): Dropout(p=0.0, inplace=False)
                  )
                  (shortcut): Identity()
                  (drop_path): DropPath(drop_prob=0.040)
                )
                (9): ConvNeXtBlock(
                  (conv_dw): Conv2d(768, 768, kernel_size=(7, 7), stride=(1, 1), padding=(3, 3), groups=768)
                  (norm): LayerNorm((768,), eps=1e-06, elementwise_affine=True)
                  (mlp): Mlp(
                    (fc1): Linear(in_features=768, out_features=3072, bias=True)
                    (act): GELU()
                    (drop1): Dropout(p=0.0, inplace=False)
                    (norm): Identity()
                    (fc2): Linear(in_features=3072, out_features=768, bias=True)
                    (drop2): Dropout(p=0.0, inplace=False)
                  )
                  (shortcut): Identity()
                  (drop_path): DropPath(drop_prob=0.043)
                )
                (10): ConvNeXtBlock(
                  (conv_dw): Conv2d(768, 768, kernel_size=(7, 7), stride=(1, 1), padding=(3, 3), groups=768)
                  (norm): LayerNorm((768,), eps=1e-06, elementwise_affine=True)
                  (mlp): Mlp(
                    (fc1): Linear(in_features=768, out_features=3072, bias=True)
                    (act): GELU()
                    (drop1): Dropout(p=0.0, inplace=False)
                    (norm): Identity()
                    (fc2): Linear(in_features=3072, out_features=768, bias=True)
                    (drop2): Dropout(p=0.0, inplace=False)
                  )
                  (shortcut): Identity()
                  (drop_path): DropPath(drop_prob=0.046)
                )
                (11): ConvNeXtBlock(
                  (conv_dw): Conv2d(768, 768, kernel_size=(7, 7), stride=(1, 1), padding=(3, 3), groups=768)
                  (norm): LayerNorm((768,), eps=1e-06, elementwise_affine=True)
                  (mlp): Mlp(
                    (fc1): Linear(in_features=768, out_features=3072, bias=True)
                    (act): GELU()
                    (drop1): Dropout(p=0.0, inplace=False)
                    (norm): Identity()
                    (fc2): Linear(in_features=3072, out_features=768, bias=True)
                    (drop2): Dropout(p=0.0, inplace=False)
                  )
                  (shortcut): Identity()
                  (drop_path): DropPath(drop_prob=0.049)
                )
                (12): ConvNeXtBlock(
                  (conv_dw): Conv2d(768, 768, kernel_size=(7, 7), stride=(1, 1), padding=(3, 3), groups=768)
                  (norm): LayerNorm((768,), eps=1e-06, elementwise_affine=True)
                  (mlp): Mlp(
                    (fc1): Linear(in_features=768, out_features=3072, bias=True)
                    (act): GELU()
                    (drop1): Dropout(p=0.0, inplace=False)
                    (norm): Identity()
                    (fc2): Linear(in_features=3072, out_features=768, bias=True)
                    (drop2): Dropout(p=0.0, inplace=False)
                  )
                  (shortcut): Identity()
                  (drop_path): DropPath(drop_prob=0.051)
                )
                (13): ConvNeXtBlock(
                  (conv_dw): Conv2d(768, 768, kernel_size=(7, 7), stride=(1, 1), padding=(3, 3), groups=768)
                  (norm): LayerNorm((768,), eps=1e-06, elementwise_affine=True)
                  (mlp): Mlp(
                    (fc1): Linear(in_features=768, out_features=3072, bias=True)
                    (act): GELU()
                    (drop1): Dropout(p=0.0, inplace=False)
                    (norm): Identity()
                    (fc2): Linear(in_features=3072, out_features=768, bias=True)
                    (drop2): Dropout(p=0.0, inplace=False)
                  )
                  (shortcut): Identity()
                  (drop_path): DropPath(drop_prob=0.054)
                )
                (14): ConvNeXtBlock(
                  (conv_dw): Conv2d(768, 768, kernel_size=(7, 7), stride=(1, 1), padding=(3, 3), groups=768)
                  (norm): LayerNorm((768,), eps=1e-06, elementwise_affine=True)
                  (mlp): Mlp(
                    (fc1): Linear(in_features=768, out_features=3072, bias=True)
                    (act): GELU()
                    (drop1): Dropout(p=0.0, inplace=False)
                    (norm): Identity()
                    (fc2): Linear(in_features=3072, out_features=768, bias=True)
                    (drop2): Dropout(p=0.0, inplace=False)
                  )
                  (shortcut): Identity()
                  (drop_path): DropPath(drop_prob=0.057)
                )
                (15): ConvNeXtBlock(
                  (conv_dw): Conv2d(768, 768, kernel_size=(7, 7), stride=(1, 1), padding=(3, 3), groups=768)
                  (norm): LayerNorm((768,), eps=1e-06, elementwise_affine=True)
                  (mlp): Mlp(
                    (fc1): Linear(in_features=768, out_features=3072, bias=True)
                    (act): GELU()
                    (drop1): Dropout(p=0.0, inplace=False)
                    (norm): Identity()
                    (fc2): Linear(in_features=3072, out_features=768, bias=True)
                    (drop2): Dropout(p=0.0, inplace=False)
                  )
                  (shortcut): Identity()
                  (drop_path): DropPath(drop_prob=0.060)
                )
                (16): ConvNeXtBlock(
                  (conv_dw): Conv2d(768, 768, kernel_size=(7, 7), stride=(1, 1), padding=(3, 3), groups=768)
                  (norm): LayerNorm((768,), eps=1e-06, elementwise_affine=True)
                  (mlp): Mlp(
                    (fc1): Linear(in_features=768, out_features=3072, bias=True)
                    (act): GELU()
                    (drop1): Dropout(p=0.0, inplace=False)
                    (norm): Identity()
                    (fc2): Linear(in_features=3072, out_features=768, bias=True)
                    (drop2): Dropout(p=0.0, inplace=False)
                  )
                  (shortcut): Identity()
                  (drop_path): DropPath(drop_prob=0.063)
                )
                (17): ConvNeXtBlock(
                  (conv_dw): Conv2d(768, 768, kernel_size=(7, 7), stride=(1, 1), padding=(3, 3), groups=768)
                  (norm): LayerNorm((768,), eps=1e-06, elementwise_affine=True)
                  (mlp): Mlp(
                    (fc1): Linear(in_features=768, out_features=3072, bias=True)
                    (act): GELU()
                    (drop1): Dropout(p=0.0, inplace=False)
                    (norm): Identity()
                    (fc2): Linear(in_features=3072, out_features=768, bias=True)
                    (drop2): Dropout(p=0.0, inplace=False)
                  )
                  (shortcut): Identity()
                  (drop_path): DropPath(drop_prob=0.066)
                )
                (18): ConvNeXtBlock(
                  (conv_dw): Conv2d(768, 768, kernel_size=(7, 7), stride=(1, 1), padding=(3, 3), groups=768)
                  (norm): LayerNorm((768,), eps=1e-06, elementwise_affine=True)
                  (mlp): Mlp(
                    (fc1): Linear(in_features=768, out_features=3072, bias=True)
                    (act): GELU()
                    (drop1): Dropout(p=0.0, inplace=False)
                    (norm): Identity()
                    (fc2): Linear(in_features=3072, out_features=768, bias=True)
                    (drop2): Dropout(p=0.0, inplace=False)
                  )
                  (shortcut): Identity()
                  (drop_path): DropPath(drop_prob=0.069)
                )
                (19): ConvNeXtBlock(
                  (conv_dw): Conv2d(768, 768, kernel_size=(7, 7), stride=(1, 1), padding=(3, 3), groups=768)
                  (norm): LayerNorm((768,), eps=1e-06, elementwise_affine=True)
                  (mlp): Mlp(
                    (fc1): Linear(in_features=768, out_features=3072, bias=True)
                    (act): GELU()
                    (drop1): Dropout(p=0.0, inplace=False)
                    (norm): Identity()
                    (fc2): Linear(in_features=3072, out_features=768, bias=True)
                    (drop2): Dropout(p=0.0, inplace=False)
                  )
                  (shortcut): Identity()
                  (drop_path): DropPath(drop_prob=0.071)
                )
                (20): ConvNeXtBlock(
                  (conv_dw): Conv2d(768, 768, kernel_size=(7, 7), stride=(1, 1), padding=(3, 3), groups=768)
                  (norm): LayerNorm((768,), eps=1e-06, elementwise_affine=True)
                  (mlp): Mlp(
                    (fc1): Linear(in_features=768, out_features=3072, bias=True)
                    (act): GELU()
                    (drop1): Dropout(p=0.0, inplace=False)
                    (norm): Identity()
                    (fc2): Linear(in_features=3072, out_features=768, bias=True)
                    (drop2): Dropout(p=0.0, inplace=False)
                  )
                  (shortcut): Identity()
                  (drop_path): DropPath(drop_prob=0.074)
                )
                (21): ConvNeXtBlock(
                  (conv_dw): Conv2d(768, 768, kernel_size=(7, 7), stride=(1, 1), padding=(3, 3), groups=768)
                  (norm): LayerNorm((768,), eps=1e-06, elementwise_affine=True)
                  (mlp): Mlp(
                    (fc1): Linear(in_features=768, out_features=3072, bias=True)
                    (act): GELU()
                    (drop1): Dropout(p=0.0, inplace=False)
                    (norm): Identity()
                    (fc2): Linear(in_features=3072, out_features=768, bias=True)
                    (drop2): Dropout(p=0.0, inplace=False)
                  )
                  (shortcut): Identity()
                  (drop_path): DropPath(drop_prob=0.077)
                )
                (22): ConvNeXtBlock(
                  (conv_dw): Conv2d(768, 768, kernel_size=(7, 7), stride=(1, 1), padding=(3, 3), groups=768)
                  (norm): LayerNorm((768,), eps=1e-06, elementwise_affine=True)
                  (mlp): Mlp(
                    (fc1): Linear(in_features=768, out_features=3072, bias=True)
                    (act): GELU()
                    (drop1): Dropout(p=0.0, inplace=False)
                    (norm): Identity()
                    (fc2): Linear(in_features=3072, out_features=768, bias=True)
                    (drop2): Dropout(p=0.0, inplace=False)
                  )
                  (shortcut): Identity()
                  (drop_path): DropPath(drop_prob=0.080)
                )
                (23): ConvNeXtBlock(
                  (conv_dw): Conv2d(768, 768, kernel_size=(7, 7), stride=(1, 1), padding=(3, 3), groups=768)
                  (norm): LayerNorm((768,), eps=1e-06, elementwise_affine=True)
                  (mlp): Mlp(
                    (fc1): Linear(in_features=768, out_features=3072, bias=True)
                    (act): GELU()
                    (drop1): Dropout(p=0.0, inplace=False)
                    (norm): Identity()
                    (fc2): Linear(in_features=3072, out_features=768, bias=True)
                    (drop2): Dropout(p=0.0, inplace=False)
                  )
                  (shortcut): Identity()
                  (drop_path): DropPath(drop_prob=0.083)
                )
                (24): ConvNeXtBlock(
                  (conv_dw): Conv2d(768, 768, kernel_size=(7, 7), stride=(1, 1), padding=(3, 3), groups=768)
                  (norm): LayerNorm((768,), eps=1e-06, elementwise_affine=True)
                  (mlp): Mlp(
                    (fc1): Linear(in_features=768, out_features=3072, bias=True)
                    (act): GELU()
                    (drop1): Dropout(p=0.0, inplace=False)
                    (norm): Identity()
                    (fc2): Linear(in_features=3072, out_features=768, bias=True)
                    (drop2): Dropout(p=0.0, inplace=False)
                  )
                  (shortcut): Identity()
                  (drop_path): DropPath(drop_prob=0.086)
                )
                (25): ConvNeXtBlock(
                  (conv_dw): Conv2d(768, 768, kernel_size=(7, 7), stride=(1, 1), padding=(3, 3), groups=768)
                  (norm): LayerNorm((768,), eps=1e-06, elementwise_affine=True)
                  (mlp): Mlp(
                    (fc1): Linear(in_features=768, out_features=3072, bias=True)
                    (act): GELU()
                    (drop1): Dropout(p=0.0, inplace=False)
                    (norm): Identity()
                    (fc2): Linear(in_features=3072, out_features=768, bias=True)
                    (drop2): Dropout(p=0.0, inplace=False)
                  )
                  (shortcut): Identity()
                  (drop_path): DropPath(drop_prob=0.089)
                )
                (26): ConvNeXtBlock(
                  (conv_dw): Conv2d(768, 768, kernel_size=(7, 7), stride=(1, 1), padding=(3, 3), groups=768)
                  (norm): LayerNorm((768,), eps=1e-06, elementwise_affine=True)
                  (mlp): Mlp(
                    (fc1): Linear(in_features=768, out_features=3072, bias=True)
                    (act): GELU()
                    (drop1): Dropout(p=0.0, inplace=False)
                    (norm): Identity()
                    (fc2): Linear(in_features=3072, out_features=768, bias=True)
                    (drop2): Dropout(p=0.0, inplace=False)
                  )
                  (shortcut): Identity()
                  (drop_path): DropPath(drop_prob=0.091)
                )
              )
            )
            (3): ConvNeXtStage(
              (downsample): Sequential(
                (0): LayerNorm2d((768,), eps=1e-06, elementwise_affine=True)
                (1): Conv2d(768, 1536, kernel_size=(2, 2), stride=(2, 2))
              )
              (blocks): Sequential(
                (0): ConvNeXtBlock(
                  (conv_dw): Conv2d(1536, 1536, kernel_size=(7, 7), stride=(1, 1), padding=(3, 3), groups=1536)
                  (norm): LayerNorm((1536,), eps=1e-06, elementwise_affine=True)
                  (mlp): Mlp(
                    (fc1): Linear(in_features=1536, out_features=6144, bias=True)
                    (act): GELU()
                    (drop1): Dropout(p=0.0, inplace=False)
                    (norm): Identity()
                    (fc2): Linear(in_features=6144, out_features=1536, bias=True)
                    (drop2): Dropout(p=0.0, inplace=False)
                  )
                  (shortcut): Identity()
                  (drop_path): DropPath(drop_prob=0.094)
                )
                (1): ConvNeXtBlock(
                  (conv_dw): Conv2d(1536, 1536, kernel_size=(7, 7), stride=(1, 1), padding=(3, 3), groups=1536)
                  (norm): LayerNorm((1536,), eps=1e-06, elementwise_affine=True)
                  (mlp): Mlp(
                    (fc1): Linear(in_features=1536, out_features=6144, bias=True)
                    (act): GELU()
                    (drop1): Dropout(p=0.0, inplace=False)
                    (norm): Identity()
                    (fc2): Linear(in_features=6144, out_features=1536, bias=True)
                    (drop2): Dropout(p=0.0, inplace=False)
                  )
                  (shortcut): Identity()
                  (drop_path): DropPath(drop_prob=0.097)
                )
                (2): ConvNeXtBlock(
                  (conv_dw): Conv2d(1536, 1536, kernel_size=(7, 7), stride=(1, 1), padding=(3, 3), groups=1536)
                  (norm): LayerNorm((1536,), eps=1e-06, elementwise_affine=True)
                  (mlp): Mlp(
                    (fc1): Linear(in_features=1536, out_features=6144, bias=True)
                    (act): GELU()
                    (drop1): Dropout(p=0.0, inplace=False)
                    (norm): Identity()
                    (fc2): Linear(in_features=6144, out_features=1536, bias=True)
                    (drop2): Dropout(p=0.0, inplace=False)
                  )
                  (shortcut): Identity()
                  (drop_path): DropPath(drop_prob=0.100)
                )
              )
            )
          )
          (norm_pre): Identity()
          (head): NormMlpClassifierHead(
            (global_pool): SelectAdaptivePool2d(pool_type=avg, flatten=Identity())
            (norm): LayerNorm2d((1536,), eps=1e-06, elementwise_affine=True)
            (flatten): Flatten(start_dim=1, end_dim=-1)
            (pre_logits): Identity()
            (drop): Dropout(p=0.0, inplace=False)
            (fc): Identity()
          )
        )
        (head): Sequential(
          (mlp): Mlp(
            (fc1): Linear(in_features=1536, out_features=1536, bias=True)
            (act): GELU(approximate='none')
            (drop1): Dropout(p=0.0, inplace=False)
            (norm): Identity()
            (fc2): Linear(in_features=1536, out_features=768, bias=False)
            (drop2): Dropout(p=0, inplace=False)
          )
        )
      )
      (transformer): Transformer(
        (resblocks): ModuleList(
          (0-15): 16 x ResidualAttentionBlock(
            (ln_1): LayerNorm((768,), eps=1e-05, elementwise_affine=True)
            (attn): MultiheadAttention(
              (out_proj): NonDynamicallyQuantizableLinear(in_features=768, out_features=768, bias=True)
            )
            (ls_1): Identity()
            (ln_2): LayerNorm((768,), eps=1e-05, elementwise_affine=True)
            (mlp): Sequential(
              (c_fc): Linear(in_features=768, out_features=3072, bias=True)
              (gelu): GELU(approximate='none')
              (c_proj): Linear(in_features=3072, out_features=768, bias=True)
            )
            (ls_2): Identity()
          )
        )
      )
      (token_embedding): Embedding(49408, 768)
      (ln_final): LayerNorm((768,), eps=1e-05, elementwise_affine=True)
    )
  )
  (mask_pooling): MaskPooling()
  (void_embedding): Embedding(1, 768)
  (cdt): ContentDependentTransfer(
    (pe_layer): Positional encoding PositionEmbeddingSine
        num_pos_feats: 384
        temperature: 10000
        normalize: True
        scale: 6.283185307179586
    (cross_atten): ShortCut_CrossAttention(
      (multihead_attn): MultiheadAttention(
        (out_proj): NonDynamicallyQuantizableLinear(in_features=768, out_features=768, bias=True)
      )
      (norm): LayerNorm((768,), eps=1e-05, elementwise_affine=True)
      (MLP): Linear(in_features=768, out_features=768, bias=True)
    )
  )
  (ma_loss): MA_Loss(
    (sl1): SmoothL1Loss()
  )
  (rc_loss): Representation_Compensation(
    (sl1): SmoothL1Loss()
  )
)
[10/12 11:22:32] d2.data.build INFO: Using training sampler TrainingSampler
[10/12 11:22:32] d2.data.common INFO: Serializing the dataset using: <class 'detectron2.data.common._TorchSerializedList'>
[10/12 11:22:32] d2.data.common INFO: Serializing 118280 elements to byte tensors and concatenating them all ...
…
